                 from  n    params  module                                  arguments
  0                -1  1      8800  models.common.Conv                      [3, 80, 6, 2, 2]
  1                -1  1    115520  models.common.Conv                      [80, 160, 3, 2]
  2                -1  4    309120  models.common.C3                        [160, 160, 4]
  3                -1  1    461440  models.common.Conv                      [160, 320, 3, 2]
  4                -1  8   2259200  models.common.C3                        [320, 320, 8]
  5                -1  1   1844480  models.common.Conv                      [320, 640, 3, 2]
  6                -1 12  13125120  models.common.C3                        [640, 640, 12]
  7                -1  1   7375360  models.common.Conv                      [640, 1280, 3, 2]
  8                -1  4  19676160  models.common.C3                        [1280, 1280, 4]
  9                -1  1   4099840  models.common.SPPF                      [1280, 1280, 5]
 10                -1  1    820480  models.common.Conv                      [1280, 640, 1, 1]
 11                -1  1         0  torch.nn.modules.upsampling.Upsample    [None, 2, 'nearest']
 12           [-1, 6]  1         0  models.common.Concat                    [1]
 13                -1  4   5332480  models.common.C3                        [1280, 640, 4, False]
 14                -1  1    205440  models.common.Conv                      [640, 320, 1, 1]
 15                -1  1         0  torch.nn.modules.upsampling.Upsample    [None, 2, 'nearest']
 16           [-1, 4]  1         0  models.common.Concat                    [1]
 17                -1  4   1335040  models.common.C3                        [640, 320, 4, False]
 18                -1  1    922240  models.common.Conv                      [320, 320, 3, 2]
 19          [-1, 14]  1         0  models.common.Concat                    [1]
 20                -1  4   4922880  models.common.C3                        [640, 640, 4, False]
 21                -1  1   3687680  models.common.Conv                      [640, 640, 3, 2]
 22          [-1, 10]  1         0  models.common.Concat                    [1]
 23                -1  4  19676160  models.common.C3                        [1280, 1280, 4, False]
 24      [17, 20, 23]  1     47103  models.yolo.Detect                      [2, [[10, 13, 16, 30, 33, 23], [30, 61, 62, 45, 59, 119], [116, 90, 156, 198, 373, 326]], [320, 640, 1280]]
YOLOv5x summary: 567 layers, 86224543 parameters, 86224543 gradients, 204.2 GFLOPs
Transferred 738/745 items from yolov5x.pt
Scaled weight_decay = 0.0005
[34m[1moptimizer:[39m[22m SGD with parameter groups 123 weight (no decay), 126 weight, 126 bias
…
